checkpoint.pt (torch, 778155 bytes, 51 tensors)

encoder.lstm1.weight_ih_l0 f4 [256, 1]
-0.021026675 -0.02817052 0.029371941 -0.0010651512 0.006835197 -0.09106275 0.04551417 -0.08875262
-0.09703876 -0.04426537 0.012618106 0.0034096413 -0.038035687 -0.022074657 -0.0024673773 0.117699005
-0.07502173 -0.08385999 0.11889288 0.020879347 0.029820576 -0.044998147 0.13095577 0.10771748
-0.099265195 -0.062006813 0.11863813 0.12613957 0.121950954 -0.08705991 0.037014864 0.07871675
0.09912347 0.12781219 0.015368264 0.026093882 0.09005352 -0.013657984 -0.036827292 0.041463364
-0.039419893 0.014795904 -0.05259078 0.108439505 -0.095944956 0.12387412 0.03339617 -0.07615591
-0.0075495415 -0.06801678 -0.05248534 0.01958589 0.06383231 0.021195581 -0.07755077 -0.10364297
0.14750572 -0.017003082 -0.111981735 0.07347391 -0.115852326 0.11664452 0.04611766 -0.062448815
0.041248694 0.11894009 0.15224262 -0.0879391 -0.08088717 0.07107696 -0.09323962 0.043085203
-0.08909113 0.11924303 -0.043988027 -0.004696199 0.007973474 -0.0052341768 -0.053108983 0.118527755
-0.026099978 -0.11253542 -0.06666565 0.09401229 -0.16324796 -0.082647555 0.13306037 0.13446
0.11752022 0.04640629 -0.07652403 -0.054133166 -0.08121255 0.11274396 -0.09380164 -0.0951916
-0.034027535 0.038813684 -0.0472071 -0.06993751 -0.029139293 0.09792721 0.12505247 -0.026221013
-0.035585638 0.020951934 -0.05968967 0.032929882 0.021999795 0.08807105 -0.098116934 0.13515751
0.121760875 0.08378741 0.12529357 0.019447913 -0.03087095 -0.03134503 -0.073682606 -0.01615776
0.0011874463 -0.020780396 0.06635546 -0.022437705 0.03478753 0.13999149 -0.038715817 -0.038049646
0.07335031 0.024751281 0.08558152 -0.069306836 0.009963713 -0.034231424 -0.10830403 0.059175555
-0.07825018 0.022433918 -0.118428946 -0.09441845 0.046275925 -0.12798618 0.14440976 0.1062894
0.029983595 -0.059826445 0.113937765 -0.038275026 -0.012676055 -0.03840755 -0.05202267 -0.010583127
-0.04353014 0.07642754 -0.070230424 0.05692903 0.048793923 0.13724658 -0.13807781 -0.008909873
-0.0345942 -0.024283621 -0.07128709 -0.10782705 0.012915456 -0.017326238 0.017463373 0.06867292
-0.008846865 0.03389703 0.06926601 0.020099778 0.027241332 -0.13217367 -0.0460904 -0.11842129
-0.04440616 -0.07646438 -0.13094899 -0.019162903 0.07943975 0.07871748 0.0013891411 -0.014013694
0.085091725 -0.082951464 0.02114139 0.05725979 0.1017929 0.08911878 0.08050409 0.07430696
-0.040369596 0.134448 0.06187846 0.050550908 -0.05051216 -0.024149423 0.08967856 0.116030626
0.07604924 0.0072843744 0.046300616 0.0050144168 0.14318894 0.038059585 0.09097141 -0.03711859
0.11436239 0.07837293 -0.06614686 0.06547109 0.04787435 0.15146099 -0.08167746 0.0024392991
-0.045432363 0.0056745186 -0.04200038 0.093953155 0.01836335 0.13950604 0.1674003 -0.0451848
-0.04297877 0.07365986 -0.00022710885 0.126099 -0.057170134 0.02160899 -0.056483332 -0.10302267
-0.041212175 0.040248405 0.009454172 0.14914994 -0.023264917 -0.01660132 0.11028277 0.056061625
0.11701155 -0.033416104 0.13960779 0.038841117 0.052173957 -0.039444447 0.12153007 0.0018264343
0.114155665 -0.033356015 -0.057712797 0.14156824 -0.06155998 0.120804034 0.0503821 -0.098880336
00000000: 2240 acbc ddc5 e6bc 6d9d f03c 8b9c 8bba
00000010: caf9 df3b 1b7f babd 116d 3a3d efc3 b5bd
00000020: 42bc c6bd 9b4f 35bd 2cbc 4e3c 4a74 5f3b
00000030: 4fcb 1bbd e9d5 b4bc b9b3 21bb 2d0c f13d
00000040: fea4 99bd c9be abbd 1c7e f33d 2a0b ab3c
00000050: 484a f43c fa4f 38bd 4519 063e fb9a dc3d
00000060: 8d4b cbbd dbfa 7dbd 8cf8 f23d bb2a 013e
00000070: 6cc1 f93d 774c b2bd e69c 173d 3f36 a13d
00000080: 3f01 cb3d 33e1 023e 2ccb 7b3c d6c2 d53c
00000090: fb6d b83d bdc5 5fbc 37d8 16bd 7dd5 293d
000000a0: c176 21bd 856a 723c 6e69 57bd 8815 de3d
000000b0: ca7e c4bd b7b1 fd3d 6cca 083d a1f7 9bbd
000000c0: 2562 f7bb 624c 8bbd defa 56bd 9772 a03c
000000d0: 84ba 823d 5ba2 ad3c f0d2 9ebd c442 d4bd
000000e0: bd0b 173e 0c4a 8bbc ae56 e5bd 7d79 963d
000000f0: fc43 edbd 52e3 ee3d dfe5 3c3d 54ca 7fbd
00000100: 64f4 283d dd96 f33d 7de5 1b3e 6a19 b4bd
00000110: 2ca8 a5bd cc90 913d 6af4 bebd 1c7a 303d
00000120: 6975 b6bd b135 f43d ca2c 34bd 93e2 99bb
00000130: 2da3 023c 7583 abbb ce88 59bd aebe f23d
00000140: 9fcf d5bc f878 e6bd 0088 88bd 8489 c03d
00000150: 792a 27be 1f43 a9bd fa40 083e e2af 093e
00000160: 71ae f03d 8614 3e3d a1b8 9cbd bdba 5dbd
00000170: c452 a6bd 4ee6 e63d 131b c0bd d0f3 c2bd
00000180: 7560 0bbd 19fb 1e3d 3b5c 41bd 663b 8fbd
00000190: 87b5 eebc 108e c83d c10d 003e 73cd d6bc
000001a0: 3fc2 11bd 64a3 ab3c 287d 74bd 7ce1 063d
000001b0: ea38 b43c 985e b43d 88f1 c8bd bb66 0a3e
000001c0: c45d f93d bc98 ab3d f54c 003e 3b51 9f3c
000001d0: 13e5 fcbc a563 00bd e8e6 96bd 475d 84bc
000001e0: 16a4 9b3a a63b aabc 5fe5 873d 47cf b7bc
000001f0: 5e7d 0e3d ee59 0f3e 7a94 1ebd f2d9 1bbd
00000200: b038 963d 33c3 ca3c 5d45 af3d bef0 8dbd
00000210: d73e 233c 4036 0cbd 81ce ddbd 1162 723d
00000220: a141 a0bd 56c7 b73c e08a f2bd 765e c1bd
00000230: d38b 3d3d cf0e 03be 27e0 133e 42ae d93d
00000240: 28a0 f53c 930c 75bd 3458 e93d 46c6 1cbd
00000250: 3aaf 4fbc 3c51 1dbd b915 55bd da64 2dbc
00000260: a94c 32bd 0b86 9c3d f8d4 8fbd 6a2e 693d
00000270: 23dc 473d 5e8a 0c3e 4564 0dbe b7fa 11bc
00000280: a6b2 0dbd 72ee c6bc f7fe 91bd 6ed4 dcbd
00000290: 599b 533c c1ef 8dbc 590f 8f3c 63a4 8c3d
000002a0: 71f2 10bc 9dd7 0a3d 56db 8d3d 4aa8 a43c
000002b0: 3729 df3c 8958 07be 4ac9 3cbd dc86 f2bd
000002c0: 3ce3 35bd 5b99 9cbd 7e17 06be 85fb 9cbc
000002d0: 4fb1 a23d a136 a13d d713 b63a b199 65bc
000002e0: 9244 ae3d 75e2 a9bd b530 ad3c 3e89 6a3d
000002f0: cc78 d03d e883 b63d 54df a43d 3f2e 983d
00000300: 975a 25bd bdac 093e 4574 7d3d 780e 4f3d
00000310: d7e5 4ebd 03d5 c5bc 65a9 b73d 77a1 ed3d
00000320: b4bf 9b3d c3b1 ee3b b7a5 3d3d fa4f a43b
00000330: 1fa0 123e 5ee4 1b3d 384f ba3d aa09 18bd
00000340: d436 ea3d fd81 a03d 0178 87bd b515 863d
00000350: e517 443d 9718 1b3e 8346 a7bd a6dc 1f3b
00000360: 4917 3abd 50f1 b93b 9708 2cbd 836a c03d
00000370: bc6e 963c acda 0e3e fc6a 2b3e b213 39bd
00000380: 820a 30bd fbda 963d 1124 6eb9 1920 013e
00000390: 3b2b 6abd 5605 b13c 115b 67bd 8dfd d2bd
000003a0: 19ce 28bd 83db 243d ace5 1a3c c3ba 183e
000003b0: 1196 bebc 7eff 87bc efdb e13d e0a0 653d
000003c0: c0a3 ef3d 53df 08bd 58f5 0e3e dd17 1f3d
000003d0: 5cb4 553d 8090 21bd c2e4 f83d f764 ef3a
000003e0: 72ca e93d 51a0 08bd 4164 6cbd 44f7 103e
000003f0: 5126 7cbd 1b68 f73d 765d 4e3d c681 cabd

encoder.lstm1.weight_hh_l0 f4 [256, 64]
0.06340467 0.047001507 -0.054898124 0.08898186 -0.13789141 -0.04066689 -0.023987016 0.035922565
0.022414185 0.025604565 -0.06690214 -0.07390219 0.09613329 -0.08404216 0.026667882 0.08582029
0.09349521 0.0016534134 0.08879388 -0.07266608 -0.046085358 0.0033188772 -0.017072845 0.07139833
0.13880286 -0.0035087797 0.0059774234 -0.113131255 0.07277978 -0.090463944 -0.075113006 -0.018767638
-0.095121294 0.12660798 0.058170836 -0.15209569 -0.12367895 0.037148803 -0.0644215 0.14200935
-0.09148698 -0.045120314 -0.023415908 0.15188932 -0.053512845 0.016799456 -0.055043124 0.013406793
-0.07934121 -0.10999403 -0.04412979 -0.053990223 0.13220318 -0.0022741698 0.0444767 0.10041919
0.061881524 0.07430499 0.13396615 0.03828072 -0.07180393 0.044139206 -0.09083971 0.054452922
0.09428559 -0.03123176 0.12474759 0.1285992 -0.04585498 -0.045190662 -0.11722843 0.1487483
0.011755433 0.029456202 -0.105678655 -0.13636327 -0.11022229 0.03213696 0.09624896 0.07061567
-0.14027268 0.06324111 -0.05265531 -0.036860574 -0.012256823 -0.15383016 -0.022748314 0.042678636
-0.06757476 0.05042427 0.060203027 0.02577264 0.047901362 0.10164096 -0.12873435 0.08960686
0.083680615 0.10449458 0.08250484 0.008832866 -0.10622831 -0.031794988 -0.01084828 0.09844674
0.11544988 0.06367767 0.12266611 0.12155402 0.07607089 -0.023518942 0.09808881 -0.0053506354
0.07439153 0.07359346 -0.08251746 0.070202805 0.14080806 0.055169158 0.13330469 -6.759461e-05
0.12749341 -0.044015028 -0.07399597 0.05692874 -0.032553855 -0.07232882 0.12983917 0.021741247
0.13710424 -0.0062199496 0.03275001 0.09417078 0.029374912 -0.10859269 0.05634171 0.15258282
-0.1117994 0.035010092 0.017257385 -0.10646896 0.005449809 0.06384337 -0.0071702814 0.12859435
-0.05529684 0.03034759 0.041701708 0.06502357 0.06269757 -0.08912657 0.05418019 -0.058641233
-0.012336109 0.00766454 -0.041583303 0.017241703 0.016809145 -0.019726934 -0.01871267 0.08837696
-0.11422846 -0.00961463 0.005835945 0.009285773 -0.13562438 -0.027022343 -0.0010073507 0.1087915
0.12271335 0.111621976 0.06789548 0.06147354 -0.099184945 -0.03715439 0.118810005 -0.14053386
0.008349841 -0.12519877 0.00021724417 -0.08472747 -0.080805734 -0.08210193 0.08860526 0.012743899
0.12544926 -0.14492364 0.041893266 -0.015446553 0.08016152 -0.08757228 -0.017789287 0.05692796
-0.027040843 -0.08047031 -0.025421562 -0.011314647 0.033290558 -0.055784848 -0.09258129 0.010316233
0.04016033 -0.09906896 0.027269501 0.025922673 0.078443676 -0.099787444 0.008988071 0.12807187
-0.07524672 0.031229008 -0.06647203 -0.07396048 -0.12473654 -0.012738646 0.11113168 0.044107977
0.052633636 -0.05674778 -0.057124343 -0.016730525 -0.020914547 0.07971598 -0.016701115 -0.09359764
-0.092950806 0.07647177 -0.08265728 -0.10913304 -0.05818991 0.04133763 -0.094869226 0.0369089
0.11577059 -0.1342622 -0.026042486 -0.08779223 -0.06322703 -0.11372131 0.0838704 0.053445775
0.06261529 -0.10296172 0.002381147 0.0928226 -0.055612516 0.118028186 -0.07421362 0.04637547
0.08064456 0.013654027 0.11127749 0.068702586 0.050377775 0.111825615 -0.0059274547 0.03704064
00000000: 4fda 813d a784 403d dbdc 60bd 1f3c b63d
00000010: 6833 0dbe 5392 26bd 6b80 c4bc 8a23 133d
00000020: f49d b73c aac0 d13c fd03 89bd 085a 97bd
00000030: 88e1 c43d 4c1e acbd 9a76 da3c 8cc2 af3d
00000040: 6b7a bf3d 59b7 d83a 91d9 b53d f4d1 94bd
00000050: 00c4 3cbd 8581 593b 5adc 8bbc 4a39 923d
00000060: 5622 0e3e 8ef3 65bb 43de c33b 5cb1 e7bd
00000070: 910d 953d 2945 b9bd d9d4 99bd 97be 99bc
00000080: f4ce c2bd 86a5 013e 8b44 6e3d f9be 1bbe
00000090: 644b fdbd 5829 183d 6bef 83bd e66a 113e
000000a0: 875d bbbd 14d0 38bd b8d2 bfbc e088 1b3e
000000b0: 4930 5bbd 039f 893c e674 61bd 2aa8 5b3c
000000c0: a57d a2bd 8d44 e1bd 70c1 34bd da24 5dbd
000000d0: 4560 073e 3d0a 15bb 332d 363d 94a8 cd3d
000000e0: 7b77 7d3d 372d 983d 6c2e 093e 3fcc 1c3d
000000f0: f00d 93bd 50cb 343d 2b0a babd 070a 5f3d
00000100: ce18 c13d bfd9 ffbc aa7b ff3d 82af 033e
00000110: 6ed2 3bbd d819 39bd 7615 f0bd 7951 183e
00000120: dc99 403c 224e f13c 0d6e d8bd d0a2 0bbe
00000130: 39bc e1bd 0ca2 033d 2d1e c53d f39e 903d
00000140: a4a3 0fbe 8e84 813d 18ad 57bd 1dfb 16bd
00000150: d7d0 48bc a785 1dbe ac5a babc cbcf 2e3d
00000160: a364 8abd ae89 4e3d 7397 763d 2521 d33c
00000170: 3834 443d 2329 d03d f0d2 03be cd83 b73d
00000180: be60 ab3d 4101 d63d 4cf8 a83d bab7 103c
00000190: 3a8e d9bd 763b 02bd fcbc 31bc 729e c93d
000001a0: fd70 ec3d 7069 823d 5f38 fb3d 50f1 f83d
000001b0: 0ecb 9b3d ccaa c0bc c9e2 c83d 6254 afbb
000001c0: 965a 983d 2bb8 963d eafe a8bd 7dc6 8f3d
000001d0: fd2f 103e 0ef9 613d 0681 083e 94c1 8db8
000001e0: a28d 023e 1a49 34bd 338b 97bd 1c2e 693d
000001f0: 3157 05bd 2221 94bd 8ff4 043e b31a b23c
00000200: 0e65 0c3e b8d0 cbbb e024 063d 9cdc c03d
00000210: a8a3 f03c d865 debd 91c6 663d ac3e 1c3e
00000220: 15f7 e4bd be66 0f3d 5c5f 8d3c 660c dabd
00000230: 5094 b23b 50c0 823d aef4 eabb 3dae 033e
00000240: f07e 62bd 829b f83c 69cf 2a3d 142b 853d
00000250: 9567 803d fe87 b6bd 0cec 5d3d ca31 70bd
00000260: 641d 4abc d226 fb3b 4153 2abd 793e 8d3c
00000270: 55b3 893c 619a a1bc 504b 99bc fbfe b43d
00000280: 9cf0 e9bd ae86 1dbc 743b bf3b 5b23 183c
00000290: 1ee1 0abe f65d ddbc 1509 84ba 14ce de3d
000002a0: 2351 fb3d 109a e43d c90c 8b3d aecb 7b3d
000002b0: 7a21 cbbd 342f 18bd a952 f33d 1ce8 0fbe
000002c0: c6cd 083c 1b34 00be 0acc 6339 9985 adbd
000002d0: 7a7d a5bd 0f25 a8bd ad76 b53d c9cb 503c
000002e0: c575 003e dd66 14be 4698 2b3d 8a13 7dbc
000002f0: b92b a43d 1859 b3bd d7ba 91bc 4b2d 693d
00000300: c284 ddbc 9ecd a4bd e140 d0bc 1261 39bc
00000310: ae5b 083d a77e 64bd 429b bdbd 6b05 293c
00000320: 287f 243d abe4 cabd 4a64 df3c c95b d43c
00000330: 14a7 a03d 5c5d ccbd b442 133c 4625 033e
00000340: f41a 9abd fad3 ff3c 7d22 88bd 9878 97bd
00000350: df75 ffbd c1b5 50bc 0299 e33d 91aa 343d
00000360: 5e96 573d 5c70 68bd 37fb 69bd 740e 89bc
00000370: fc54 abbc 2242 a33d c7d0 88bc 1fb0 bfbd
00000380: fe5c bebd 3b9d 9c3d 3848 a9bd 2581 dfbd
00000390: 8b58 6ebd a651 293d cc4a c2bd c92d 173d
000003a0: 2219 ed3d 087c 09be 0d57 d5bc 6acc b3bd
000003b0: 2c7d 81bd b8e6 e8bd 3fc4 ab3d f5e9 5a3d
000003c0: 723c 803d 98dd d2bd 040d 1c3b c619 be3d
000003d0: f3c9 63bd c3b8 f13d 4ffd 97bd 34f4 3d3d
000003e0: fa28 a53d 24b5 5f3c 74e5 e33d f1b3 8c3d
000003f0: ed58 4e3d d404 e53d 183b c2bb edb7 173d

encoder.lstm1.bias_ih_l0 f4 [256]
-0.09107619 0.06679043 -0.03305735 0.06517369 -0.103573956 0.13479209 -0.04202692 0.14114106
-0.017622747 0.096445955 -0.10594048 0.06448059 -0.019536253 0.08237783 0.060535666 0.12174698
0.10218271 0.084425054 0.0450394 0.13528407 -0.12418992 0.05365915 0.08963158 -0.030749047
-0.029985221 0.075428165 0.110989615 0.118797764 0.03540403 0.14098927 0.098756395 -0.048548747
-0.06258905 -0.065091014 0.06902948 -0.008749771 0.03139314 0.10167319 0.07845684 -0.036953293
0.035231285 0.010167842 0.017034357 -0.09909159 -0.017889122 0.039551035 0.14072868 -0.072837315
0.042678542 0.09795075 0.062909335 0.13866208 -0.047280814 0.11879887 0.121240154 0.03590773
0.08334664 0.069529116 -0.04276013 -0.09784944 -0.030069951 -0.048849504 0.040198095 0.13096748
-0.07467295 0.02598099 0.017089417 -0.059261523 -0.081032306 -0.051828947 0.014568952 0.09570033
-0.0035891891 -0.0872065 0.12825581 -0.059544038 -0.085820295 0.072171174 0.026889307 0.08419296
0.10851658 0.122024976 0.1041874 -0.06650528 0.045588188 -0.062372543 0.09913968 0.001457198
0.11474995 -0.09869907 -0.066972055 -0.023600038 0.10245973 -0.021303987 -0.0040282444 0.068878524
-0.09568329 0.11340073 0.11310836 0.10147615 -0.051311735 -0.020974362 -0.09646859 0.049158897
0.08637338 0.025434075 0.0144142965 -0.098180905 0.13070221 -0.023974404 0.08382264 -0.013452497
-0.08209719 -0.0071099 0.09894315 0.055036277 -0.09345605 -0.11225941 0.07156237 -0.009861044
-0.08428746 0.020404676 0.1010287 -0.017155956 -0.13343763 -0.008371006 -0.02315135 0.09295463
-0.09936558 -0.13059671 0.1460191 -0.051093057 0.013239014 -0.100858785 -0.07980361 -0.04647865
-0.09550586 0.04143182 -0.06105243 -0.09507292 0.06157308 -0.08599001 0.0472876 0.042929348
-0.032086227 0.01864853 -0.04125896 -0.083924904 0.026097035 -0.05450805 0.00035263668 -0.015164829
0.13452068 -0.03625619 -0.12061738 -0.07027221 0.028950378 0.12529698 -0.039103396 0.09882366
-0.07586851 -0.023990333 0.11574239 -0.078324005 -0.14730142 0.010295489 -0.10489721 0.11997662
-0.042716697 -0.111960046 0.08925387 0.13980928 -0.034624696 0.04514106 0.13348731 0.09842897
-0.1059278 -0.076464355 0.041976374 0.07659074 0.07110371 -0.099732876 0.11186054 0.0351134
0.11525899 0.0092126625 0.0405227 -0.0300129 0.05463968 0.1325075 -0.025877114 0.07134471
0.020739771 -0.045899194 0.057489455 0.11337308 0.0225225 -0.0018254643 -0.037970107 -0.079297684
0.00323143 -0.108504966 0.09612949 -0.030749967 -0.06391797 0.039349448 0.07025359 0.03547553
0.039377097 0.046717618 -0.04978118 -0.032646853 -0.016503278 0.04076991 0.061018955 0.012080377
0.07112026 0.1567786 0.11514266 0.06553371 0.07538673 0.03898831 0.14178409 -0.0043075327
-0.0015026255 0.1047111 -0.03640047 -0.034690898 -0.03670625 0.07231082 -0.025173102 -0.022639845
-0.13316767 0.07743034 0.07393692 -0.07584424 0.12790471 0.025320735 0.11287879 -0.019427828
0.0706944 -0.05859193 -0.014225655 -0.009857342 0.14666545 -0.09915325 -0.05802281 0.06799057
0.02243221 -0.02633343 0.15577617 0.11519057 -0.08811095 0.08197498 0.037509974 0.004221463
00000000: 2786 babd 6cc9 883d 2567 07bd c979 853d
00000010: 951e d4bd f006 0a3e 6b24 2cbd 4887 103e
00000020: 945d 90bc 7585 c53d 53f7 d8bd 660e 843d
00000030: 7e0a a0bc b5b5 a83d 3ff4 773d 7b56 f93d
00000040: 2b45 d13d 0be7 ac3d 3c7b 383d e887 0a3e
00000050: 4957 febd b2c9 5b3d c390 b73d 6de5 fbbc
00000060: 91a3 f5bc 157a 9a3d 864e e33d 3e4c f33d
00000070: d103 113d 7e5f 103e cb40 ca3d 0ddb 46bd
00000080: b02e 80bd 704e 85bd 545f 8d3d 335b 0fbc
00000090: 1896 003d 093a d03d fbad a03d 565c 17bd
000000a0: ae4e 103d 0597 263c a38b 8b3c 88f0 cabd
000000b0: 358c 92bc 4400 223d 2e1b 103e bb2b 95bd
000000c0: b2cf 2e3d 679a c83d 9cd6 803d 6ffd 0d3e
000000d0: 87a9 41bd d24c f33d c24c f83d fc13 133d
000000e0: a5b1 aa3d 4865 8e3d 3f25 2fbd 4a65 c8bd
000000f0: 4255 f6bc 6b16 48bd c2a6 243d 571c 063e
00000100: 22ee 98bd 16d6 d43c 1bff 8b3c 36bc 72bd
00000110: 44f4 a5bd 974a 54bd 9db2 6e3c 89fe c33d
00000120: 9a38 6bbb 5299 b2bd 7e55 033e 73e4 73bd
00000130: 8dc2 afbd 7bce 933d f746 dc3c 5c6d ac3d
00000140: f13d de3d 3be8 f93d 3460 d53d ec33 88bd
00000150: aeba 3a3d 5a7a 7fbd bf09 cb3d 74ff be3a
00000160: 0602 eb3d bd22 cabd a528 89bd de54 c1bc
00000170: 68d6 d13d b385 aebc 5dff 83bb 2f10 8d3d
00000180: 9af5 c3bd a43e e83d 5ba5 e73d bad2 cf3d
00000190: 412c 52bd 6dd2 abbc 5391 c5bd d75a 493d
000001a0: 87e4 b03d 1f5b d03c f129 6c3c 1213 c9bd
000001b0: cdd6 053e f865 c4bc 34ab ab3d dd67 5cbc
000001c0: 9222 a8bd 2afa e8bb b5a2 ca3d b86d 613d
000001d0: e365 bfbd 43e8 e5bd 4b8f 923d 3790 21bc
000001e0: e79e acbd b527 a73c 23e8 ce3d a68a 8cbc
000001f0: e0a3 08be 8b26 09bc e6a7 bdbc ff5e be3d
00000200: 2e80 cbbd 25bb 05be 0886 153e f446 51bd
00000210: 73e8 583c 0d8f cebd 1370 a3bd 6660 3ebd
00000220: 9498 c3bd 69b4 293d 1d12 7abd 97b5 c2bd
00000230: 0e34 7c3d 881b b0bd a4b0 413d afd6 2f3d
00000240: d96c 03bd cdc4 983c 28ff 28bd d2e0 abbd
00000250: 73c9 d53c d543 5fbd 18e2 b839 e775 78bc
00000260: cabf 093e 5f81 14bd 3f06 f7bd e0ea 8fbd
00000270: 5829 ed3c da4d 003e e22a 20bd 0f64 ca3d
00000280: f360 9bbd 6087 c4bc 590a ed3d 5668 a0bd
00000290: 2fd6 16be 69ae 283c 59d4 d6bd 4db6 f53d
000002a0: b4f7 2ebd 4f4b e5bd bcca b63d 2a2a 0f3e
000002b0: a0d2 0dbd d5e5 383d e6b0 083e 2195 c93d
000002c0: adf0 d8bd 5899 9cbd 6bef 2b3d 9bdb 9c3d
000002d0: d29e 913d c040 ccbd 2417 e53d 12d3 0f3d
000002e0: e80c ec3d b5f0 163c 21fb 253d 9ddd f5bc
000002f0: dbcd 5f3d 0cb0 073e 3efc d3bc 2d1d 923d
00000300: 74e6 a93c cb00 3cbd 107a 6b3d 2530 e83d
00000310: 1b81 b83c 6b44 efba 8b86 1bbd d366 a2bd
00000320: 66c6 533b da37 debd 8adf c43d 5be7 fbbc
00000330: 6de7 82bd e32c 213d 1de1 8f3d ca4e 113d
00000340: e149 213d f95a 3f3d 5ae7 4bbd b5b8 05bd
00000350: e231 87bc 59fe 263d 03ef 793d c6ec 453c
00000360: 80a7 913d 928a 203e eacf eb3d 8a36 863d
00000370: 5c64 9a3d 35b2 1f3d d92f 113e 3426 8dbb
00000380: bff3 c4ba c672 d63d a918 15bd 0b18 0ebd
00000390: 4b59 16bd b217 943d d237 cebc 3277 b9bc
000003a0: 1b5d 08be cc93 9e3d 3d6c 973d 3a54 9bbd
000003b0: 74f9 023e 6e6d cf3c ff2c e73d 1c27 9fbc
000003c0: 3ac8 903d 17fe 6fbd b912 69bc b080 21bc
000003d0: 782f 163e dc10 cbbd 53a9 6dbd a43e 8b3d
000003e0: c1c3 b73c 35b9 d7bc ca83 1f3e 09e9 eb3d
000003f0: 8473 b4bd 80e2 a73d 0fa4 193d 3354 8a3b

encoder.lstm1.bias_hh_l0 f4 [256]
0.12595096 0.03397933 0.015188033 0.058219675 0.073148824 -0.07307907 -0.041803 -0.09438794
0.06395705 0.011963123 0.095131375 0.04025999 0.11492949 0.13118957 0.015613171 0.09531786
-0.075054325 -0.05827178 0.083765715 0.10341623 -0.048058722 0.080081716 -0.031431906 0.028637378
-0.040885806 0.112345904 -0.002505037 -0.09621225 0.1447379 0.123950206 0.13155854 0.12927593
0.05675698 -0.02890549 0.099838175 -0.0025498362 0.03470854 -0.049895745 -0.017038833 0.11288415
-0.024040613 -0.067644365 -0.042474348 -0.05434095 0.10152637 0.025058726 -0.091478884 -0.111335695
0.11303512 0.056247246 0.13751596 -0.06037209 0.017339194 -0.07411516 -0.021541081 0.066068746
-0.059916228 -0.11046749 0.12211336 -0.06942698 0.05413455 -0.041484214 0.00017907722 0.115975104
0.069910124 -0.06050469 0.009234498 0.10429586 -0.07922371 -0.06993274 0.09826403 -0.011233077
0.0021450447 -0.10146453 0.11391278 -0.031194303 0.1000688 -0.009586478 0.013610636 0.1265533
0.13168126 -0.09361731 0.12863888 -0.048509665 0.04605252 -0.021876581 -0.043779586 0.021588165
-0.006288512 0.04713627 0.12979236 0.06084021 0.10801162 -0.08129296 0.07704013 0.0232507
-0.08405674 0.039758697 0.0063493354 0.0649968 0.023474455 0.11124023 0.11269117 0.12298392
0.092258476 -0.08755775 0.08590901 0.14161953 0.1497878 0.01059036 0.03802601 -0.016478665
0.082068354 0.049648564 0.008644136 -0.048413157 0.051347967 -0.03944363 -0.0477333 0.066328466
0.07716503 0.05108384 -0.06291629 0.10792914 -0.03468619 0.03500825 0.044353556 -0.014061501
0.08409043 0.002721476 -0.08562144 0.08744785 -0.039493646 -0.06622506 0.04636702 0.10925126
-0.13879806 -0.03319336 0.022302354 0.011823579 -0.13987441 -0.11117552 -0.045242578 0.07043682
-0.007994874 0.032264818 0.08498538 -0.027884545 -0.0017609496 -0.086572275 0.09523855 -0.07456008
-0.014698899 -0.03378761 -0.07602664 -0.13095011 0.0050766654 -0.004660476 -0.09994941 0.1052236
0.022043733 0.12161646 0.039575014 -0.117217675 0.03379923 0.10600499 -0.031197144 0.075504996
-0.052765716 0.10041905 -0.054948114 0.10398989 -0.09799774 -0.10219426 0.08960149 -0.079448156
-0.10440769 -0.09269505 -0.014325568 0.025186224 -0.019309536 -0.054450586 0.025322989 0.11656398
-0.06886804 -0.013797743 0.0029792474 -0.017300706 0.03370343 0.043136448 0.107220024 0.13427515
0.07589134 0.0001531911 0.019760465 -0.016896568 0.1289239 0.06972381 0.082932055 0.055116944
0.070401326 -0.10313091 -0.041897826 -0.048572004 0.008101727 -0.05093457 0.061470337 -0.10562791
0.08608807 0.08721226 0.038654707 0.13820584 -0.007648617 0.026890783 -0.04992877 0.03674574
-0.005611328 -0.032340307 -0.063856944 -0.026111081 0.085035086 -0.026816372 -0.006808444 0.13922606
0.07264174 -0.039353 0.047548644 -0.037318256 0.074505 0.12393573 0.14778955 0.102766395
-0.077367306 -0.052215703 0.12926526 0.0427454 0.10703168 -0.04376719 0.11324871 0.0009887147
-0.08863223 0.14798963 -0.013194815 -0.08537191 0.044482682 -0.05205131 -0.047695126 -0.047637537
-0.05158986 0.023161685 0.027445782 -0.06061314 -0.11655533 0.15224962 -0.17376857 -0.0030763026
00000000: 4af9 003e e92d 0b3d 3ad7 783c c177 6e3d
00000010: 0dcf 953d 7baa 95bd 9f39 2bbd 774e c1bd
00000020: eafb 823d fa00 443c 3dd4 c23d a9e7 243d
00000030: 2760 eb3d 8f56 063e 63ce 7f3c 0336 c33d
00000040: 15b6 99bd 64ae 6ebd 5c8d ab3d e3cb d33d
00000050: 39d9 44bd e201 a43d bebe 00bd ef98 ea3c
00000060: e077 27bd 9c15 e63d 8c2b 24bb ee0a c5bd
00000070: 2c36 143e 9bd9 fd3d 48b7 063e e960 043e
00000080: 027a 683d 35cb ecbc f577 cc3d 271b 27bb
00000090: 8b2a 0e3d 7b5f 4cbd 0695 8bbc ce2f e73d
000000a0: d2f0 c4bc 2189 8abd 95f9 2dbd 9e94 5ebd
000000b0: 0fed cf3d f547 cd3c 4859 bbbd f803 e4bd
000000c0: f57e e73d 8363 663d fcd0 0c3e ba48 77bd
000000d0: ed0a 8e3c b0c9 97bd ec76 b0bc 0d4f 873d
000000e0: b86a 75bd c83c e2bd 9216 fa3d bc2f 8ebd
000000f0: 31bc 5d3d 5aeb 29bd adc6 3b39 5b84 ed3d
00000100: 0a2d 8f3d c4d3 77bd 4b4c 173c 1199 d53d
00000110: 0a40 a2bd e538 8fbd a73e c93d f10a 38bc
00000120: e193 0c3b a3cc cfbd 1b4b e93d 328b ffbc
00000130: dff0 cc3d 9a10 1dbc 25ff 5e3c 3097 013e
00000140: 74d7 063e 6fba bfbd e9b9 033e 12b2 46bd
00000150: 91a1 3c3d 8436 b3bc 3952 33bd aad9 b03c
00000160: dd0f cebb f611 413d 4ae8 043e 9633 793d
00000170: 3235 dd3d ec7c a6bd 37c7 9d3d 4178 be3c
00000180: f125 acbd 04da 223d 160e d03b 0b1d 853d
00000190: 804d c03c ebd1 e33d a1ca e63d fede fb3d
000001a0: 03f2 bc3d 7a51 b3bd 10f1 af3d b604 113e
000001b0: f961 193e 3083 2d3c 29c1 1b3d 44fe 86bc
000001c0: 7413 a83d 4b5c 4b3d 22a0 0d3c e04c 46bd
000001d0: 3f52 523d a58f 21bd fe83 43bd 38d7 873d
000001e0: b308 9e3d 4a3d 513d 41da 80bd f409 dd3d
000001f0: 1b13 0ebd d064 0f3d 13ac 353d 3662 66bc
00000200: 9a37 ac3d ca5a 323b 4b5a afbd dc17 b33d
00000210: 17c4 21bd 01a1 87bd 58eb 3d3d 20bf df3d
00000220: 1421 0ebe c3f5 07bd 6db3 b63c afb7 413c
00000230: 3d3b 0fbe feaf e3bd 4850 39bd 2e41 903d
00000240: effc 02bc 1d28 043d d10c ae3d 216e e4bc
00000250: aacf e6ba ce4c b1bd 6e0c c33d f5b2 98bd
00000260: a7d3 70bc e064 0abd dbb3 9bbd c917 06be
00000270: 285a a63b e8b6 98bb 47b2 ccbd 797f d73d
00000280: 0f95 b43c 0d12 f93d 6919 223d d20f f0bd
00000290: 1071 0a3d 2519 d93d 2791 ffbc 5da2 9a3d
000002a0: dd20 58bd 81a8 cd3d 4611 61bd a7f8 d43d
000002b0: 0ab3 c8bd 394b d1bd fc80 b73d b7b5 a2bd
000002c0: b3d3 d5bd e7d6 bdbd cab5 6abc 5753 ce3c
000002d0: 082f 9ebc 9407 5fbd 2872 cf3c 19b9 ee3d
000002e0: b00a 8dbd ee0f 62bc 7a3f 433b 36ba 8dbc
000002f0: 9c0c 0a3d d8af 303d 2c96 db3d 6d7f 093e
00000300: eb6c 9b3d eca1 2039 b3e0 a13c ac6a 8abc
00000310: a004 043e 5bcb 8e3d 48d8 a93d 4ec2 613d
00000320: 922e 903d 4c36 d3bd 0e9d 2bbd 70f3 46bd
00000330: 1bbd 043c c5a0 50bd 52c8 7b3d 7253 d8bd
00000340: f14e b03d 579c b23d 6654 1e3d d585 0d3e
00000350: 40a1 fabb 0f4a dc3c 1c82 4cbd b382 163d
00000360: 3bdf b7bb 4577 04bd 6ec7 82bd e8e6 d5bc
00000370: e026 ae3d 02ae dbbc 5e19 dfbb 4791 0e3e
00000380: 31c5 943d 9c30 21bd 5ec2 423d 07db 18bd
00000390: 1496 983d 04d2 fd3d 2556 173e 3077 d23d
000003a0: c072 9ebd 22e0 55bd 1d5e 043e cd15 2f3d
000003b0: 6d33 db3d 3a45 33bd f1ee e73d c397 813a
000003c0: d184 b5bd 988a 173e 112f 58bc 78d7 aebd
000003d0: 7933 363d c133 55bd f75b 43bd 941f 43bd
000003e0: e44f 53bd 93bd bd3c fad5 e03c 7c45 78bd
000003f0: 90b4 eebd 53e7 1b3e 63f0 31be cb9b 49bb

encoder.lstm2.weight_ih_l0 f4 [128, 64]
0.012378652 -0.09472002 0.16810691 0.14034405 0.042418923 0.007958569 0.025881216 0.06923574
0.07211512 0.042437576 -0.031126728 -0.17149132 -0.08161331 -0.1436639 0.11793878 0.024503553
0.13914542 0.20371635 -0.056218486 -0.03699699 -0.11269933 -0.07757624 0.08657152 -0.07167521
-0.10772524 -0.06550959 -0.08727936 -0.051680993 0.09436906 0.086704865 0.16348392 0.09853698
-0.14384805 0.14938542 0.088035055 0.15793265 -0.14755464 -0.10224709 0.08254688 0.008669368
-0.06758738 -0.18490203 -0.016412927 -0.013658505 0.116305314 -0.09006234 0.022645783 -0.14910387
-0.05239513 -0.050217886 -0.14696519 0.083744586 0.11240473 -0.08039867 0.12786233 0.016233886
0.109403916 -0.09808717 -0.0848252 0.10717579 -0.18022229 -0.15744805 0.02060401 0.07826289
-0.041626777 -0.0990149 0.037100308 -0.07314977 -0.1832711 0.016069386 0.014158509 0.012508191
-0.12731244 0.11808244 0.09161281 0.14097878 -0.021270549 -0.038147114 0.15685208 0.057984494
0.10922246 0.07292325 0.1918043 -0.0954588 0.056548566 -0.18665974 -0.008719743 0.021232221
-0.11948981 0.057686556 0.15019463 -0.1406233 0.06467269 0.18296188 -0.0906214 0.07185933
-0.14978373 -0.11391753 0.02753657 0.08443808 0.08191582 -0.08191353 0.083083086 -0.047118064
-0.124248184 0.0062008314 0.15713541 -0.13622238 -0.052404657 0.08920917 -0.11461168 0.110991746
-0.17165515 -0.12967233 -0.17832331 0.05305721 -0.03790473 0.002963554 -0.068976544 -0.13461903
0.1335435 -0.054822266 0.10474929 -0.010891151 0.13959672 -0.044469617 0.057773583 0.18529382
0.022559308 -0.1862512 0.1776781 -0.11149576 0.07750532 -0.024372501 0.077723786 -0.13323957
0.06417469 0.14197241 -0.017842928 -0.07913201 0.08149041 0.0958106 0.032595806 0.1968149
-0.0046630665 0.13013466 0.125986 -0.073786296 -0.12915137 -0.03676764 -0.12935002 0.14304033
-0.018086819 0.13455753 -0.1586767 0.07602627 0.032828555 0.027040593 -0.07890932 0.083258905
0.045146782 0.17579675 0.1602227 0.10261257 -0.15587091 0.047941234 -0.1245394 0.030383289
-0.0019083503 0.028537143 0.029634057 0.030751534 -0.11751493 0.055580497 -0.12321948 -0.10231205
-0.14134277 -0.16845362 -0.04957492 0.111919634 0.07214285 0.07361972 0.10398453 -0.13826928
-0.03624027 0.0587106 0.0041629337 0.16447699 -0.105332345 -0.104828976 0.12348774 -0.08173468
-0.066696994 -0.12266978 -0.13141544 -0.15222822 0.01754059 -0.07071092 0.13241361 0.14593807
-0.029532682 0.13431075 -0.14609623 0.07330135 0.016314344 -0.18719873 0.05413375 0.14644465
0.1300827 -0.003580706 -0.01644452 -0.19915956 0.14674522 0.061369356 0.042007197 0.047644485
0.003313834 -0.089420065 0.0113499155 -0.19069533 0.026762815 0.0058475244 0.06968993 0.109771624
-0.026074303 0.07164822 0.1615555 0.029903287 -0.1815741 0.18029337 -0.1457752 0.08620264
-0.06383289 -0.13607769 0.04748235 -0.0048796553 0.039933585 -0.14395776 -0.0767827 -0.17286697
-0.19274366 -0.013824927 0.06952095 -0.104806595 -0.044384215 -0.0076455376 -0.10744886 0.042105544
-0.022749579 -0.12228932 0.15032893 0.15977424 -0.09620577 -0.109578885 0.014565007 -0.102650136
00000000: d4cf 4a3c 92fc c1bd 3824 2c3e 5ab6 0f3e
00000010: 77bf 2d3d a864 023c d804 d43c 78cb 8d3d
00000020: 18b1 933d 06d3 2d3d 7bfd febc 6c9b 2fbe
00000030: e124 a7bd a11c 13be e389 f13d adbb c83c
00000040: 237c 0e3e 059b 503e 5b45 66bd 288a 17bd
00000050: e8ce e6bd 4be0 9ebd 694c b13d 74ca 92bd
00000060: 0d9f dcbd e429 86bd 85bf b2bd 73af 53bd
00000070: 9144 c13d 5292 b13d 5468 273e c2cd c93d
00000080: e74c 13be 7ef8 183e b94b b43d 19b9 213e
00000090: 9018 17be ec66 d1bd 570e a93d f709 0e3c
000000a0: 416b 8abd f556 3dbe 6774 86bc ecc7 5fbc
000000b0: 7b31 ee3d 9b72 b8bd a683 b93c afae 18be
000000c0: 479c 56bd 45b1 4dbd 0b7e 16be 4882 ab3d
000000d0: 7334 e63d 0fa8 a4bd 58ee 023e edfc 843c
000000e0: 290f e03d ede1 c8bd d6b8 adbd fb7e db3d
000000f0: 318c 38be 103a 21be bec9 a83c 4b48 a03d
00000100: d780 2abd 53c8 cabd 7ef6 173d 8ccf 95bd
00000110: 6bab 3bbe f2a3 833c 17f9 673c 28ef 4c3c
00000120: 315e 02be 35d5 f13d 7f9f bb3d be5c 103e
00000130: 933f aebc 2640 1cbd d59d 203e 2681 6d3d
00000140: 06b0 df3d c958 953d 5968 443e e77f c3bd
00000150: 789f 673d bb23 3fbe 41dd 0ebc 32ef ad3c
00000160: 13b7 f4bd bd48 6c3d 9fcc 193e 8eff 0fbe
00000170: 1e73 843d 5c5a 3b3e b697 b9bd fc2a 933d
00000180: e860 19be 984d e9bd 5f94 e13c dfed ac3d
00000190: 7bc3 a73d 48c2 a7bd 7727 aa3d dffe 40bd
000001a0: d575 febd 5830 cb3b 1be8 203e e17d 0bbe
000001b0: 44a6 56bd 4cb3 b63d 87b9 eabd a44f e33d
000001c0: 5ec6 2fbe d3c8 04be 639a 36be 8452 593d
000001d0: fd41 1bbd 3038 423b 9343 8dbd 92d9 09be
000001e0: a1bf 083e 508d 60bd cc86 d63d cc70 32bc
000001f0: 71f2 0e3e c625 36bd fea3 6c3d aabd 3d3e
00000200: 4cce b83c a2b8 3ebe 3ff1 353e e457 e4bd
00000210: 1cbb 9e3d d7a8 c7bc a62d 9f3d f46f 08be
00000220: 056e 833d 3761 113e 552b 92bc f70f a2bd
00000230: 72e4 a63d 5938 c43d 2e83 053d d889 493e
00000240: a3cc 98bb 0542 053e 7902 013e 451d 97bd
00000250: 4240 04be aa99 16bd 5574 04be 2a79 123e
00000260: cf2a 94bc 73c9 093e 257c 22be a9b3 9b3d
00000270: 3c77 063d 3c84 dd3c 369b a1bd a583 aa3d
00000280: d5eb 383d 1004 343e 6b11 243e 8a26 d23d
00000290: a09c 1fbe 075e 443d 830e ffbd 60e6 f83c
000002a0: 9c21 faba bac6 e93c 1fc3 f23c a4ea fb3c
000002b0: abab f0bd 60a8 633d 7f5a fcbd fb88 d1bd
000002c0: 29bc 10be 1b7f 2cbe 120f 4bbd 1f36 e53d
000002d0: a1bf 933d f0c5 963d d7f5 d43d 7696 0dbe
000002e0: ad70 14bd 877a 703d 3869 883b a86c 283e
000002f0: 7cb8 d7bd 93b0 d6bd 24e7 fc3d 8364 a7bd
00000300: 6f98 88bd 4b3a fbbd c591 06be b7e1 1bbe
00000310: 49b1 8f3c e3d0 90bd 6f97 073e ca70 153e
00000320: 86ee f1bc c288 093e 409a 15be 051f 963d
00000330: a9a5 853c 06b1 3fbe 5abb 5d3d 96f5 153e
00000340: 6634 053e 47aa 6abb a8b6 86bc 7cf0 4bbe
00000350: 6144 163e 6f5e 7b3d bd0f 2c3d dd26 433d
00000360: e92c 593b de21 b7bd fff4 393c a345 43be
00000370: b13d db3c 979c bf3b 98b9 8e3d f2cf e03d
00000380: c799 d5bc 4dbc 923d ce6e 253e bdf7 f43c
00000390: 90ee 39be d39e 383e 1846 15be 028b b03d
000003a0: d1ba 82bd f357 0bbe da7c 423d 84e5 9fbb
000003b0: 6691 233d aa69 13be 4040 9dbd 0a04 31be
000003c0: 985e 45be f281 62bc 0061 8e3d d7a4 d6bd
000003d0: 39cc 35bd 6b87 fabb 260e dcbd dd76 2c3d
000003e0: 535d babc d372 fabd d4ef 193e dc9b 233e
000003f0: 8807 c5bd e56a e0bd 11a2 6e3c 3c3a d2bd

encoder.lstm2.weight_hh_l0 f4 [128, 32]
-0.17088692 0.09917438 -0.054523546 0.1324544 0.0096058445 -0.1502366 -0.13485259 0.07556728
-0.10535784 -0.03931897 0.03951136 0.08712455 -0.13546702 -0.15971549 0.09674318 0.141362
-0.036513634 0.09189701 0.0018165851 0.06636573 0.06863012 0.09647111 0.0400674 0.07302897
-0.033151902 -0.104313254 -0.15449987 0.013788164 -0.0028394915 -0.14269777 -0.005293178 -0.11181014
0.10733034 -0.07860619 -0.12327162 0.0387309 0.16802815 -0.1510665 -0.1663304 0.03632434
0.038338117 0.13254604 0.030228265 -0.10706084 -0.08188821 0.1511839 0.10058217 0.1867288
-0.09447057 -0.054126464 0.018150851 0.111471534 0.02999169 0.0369757 -0.04608165 0.010071408
-0.12801094 -0.023767224 -0.12763537 0.081318855 -0.07578183 -0.09735312 -0.11655436 0.0390883
0.09206733 -0.10743544 -0.14711823 -0.1293968 -0.05813781 -0.00066616986 -0.15434355 0.052688602
0.20533904 -0.0039440314 0.1458082 0.108239785 -0.12256502 0.09317252 0.03116765 -0.09164319
-0.01184504 -0.12022994 0.034772657 -0.03369067 -0.05260503 -0.09742355 0.049201347 0.12010347
0.052385736 -0.12115045 0.038761847 -0.18226509 0.075852 -0.094822034 -0.061204165 -0.11450312
-0.03472266 -0.0147982845 0.13582432 -0.17750171 0.061799955 0.056620516 -0.18321401 0.057653666
-0.0969077 0.043089915 0.109234296 -0.052797515 0.13280483 -0.017013462 -0.17964983 0.008135833
0.0030335186 -0.07055666 -0.07288361 -0.009731847 -0.11498141 -0.044150177 -0.00055641343 -0.17699502
-0.14645751 0.08419386 0.056010455 -0.11431555 0.13726966 0.14292167 -0.037075423 0.09285476
0.15947509 0.19881727 -0.07016209 0.07033843 0.10342904 -0.008945979 0.012252234 -0.19385053
-0.002833495 0.16389087 0.082630046 0.027359432 -0.064560965 -0.05103641 0.20300665 -0.09259187
0.10859847 0.09703143 0.1161797 0.10589169 -0.08390519 -0.082521416 -0.10037223 -0.015763825
0.005515019 -0.19599138 -0.1423561 -0.078401014 -0.1629735 -0.15686798 -0.1206617 0.047212444
-0.032557417 -0.1679748 0.023211535 -0.2068785 -0.0070289834 0.05542582 -0.16443157 0.20062149
-0.0697989 0.05649063 0.09860716 -0.05150838 0.09408898 0.14730959 0.08976607 0.20379002
0.009728643 -0.043760184 0.013465827 -0.0004351674 0.07960209 -0.21601304 -0.01741184 -0.06513952
0.19338968 0.0590349 -0.04184612 -0.07315751 0.046641763 -0.047108617 -0.07862786 0.099946484
0.12343808 0.12776409 0.12712033 0.14483753 0.08309683 -0.10165202 -0.1754752 0.16126221
0.14972523 0.07716202 -0.13907447 -0.0695483 0.01410633 0.12658896 0.10798837 0.03841729
0.056009214 -0.046370547 -0.02538637 0.09317776 -0.030466177 0.13880172 0.05919102 0.03585508
0.034275413 0.05783461 -0.15103218 -0.101219535 0.060834877 0.12603529 0.13120607 -0.019085415
0.05592493 -0.16765101 0.0064723413 -0.07468188 0.048651826 0.08078664 0.07484121 0.111112885
-0.006229541 -0.09230833 -0.012252604 -0.17701781 0.06744456 0.17136867 0.07945701 0.010424859
-0.09013512 -0.010858573 -0.13721596 0.036140602 -0.103670634 0.15628533 -0.09419771 -0.14482364
-0.08172359 0.02281899 0.026555467 0.11632653 0.13614568 -0.1288225 0.06647144 0.023427937
00000000: fbfc 2ebe f01b cb3d 1554 5fbd 20a2 073e
00000010: d561 1d3c a0d7 19be cc16 0abe 05c3 9a3d
00000020: dac5 d7bd ee0c 21bd aad6 213d 5b6e b23d
00000030: deb7 0abe 758c 23be 4a21 c63d 33c1 103e
00000040: 528f 15bd 8034 bc3d 7b1a ee3a c1ea 873d
00000050: f38d 8c3d a592 c53d b71d 243d 3690 953d
00000060: 4aca 07bd 30a2 d5bd 3735 1ebe c0e7 613c
00000070: c316 3abb 5d1f 12be 6572 adbb b7fc e4bd
00000080: 02d0 db3d 48fc a0bd d575 fcbd 4ba4 1e3d
00000090: 920f 2c3e 2db1 1abe 8452 2abe d5c8 143d
000000a0: 6e08 1d3d 26ba 073e 44a1 f73c b742 dbbd
000000b0: 01b5 a7bd f4cf 1a3e 06fe cd3d d635 3f3e
000000c0: c979 c1bd b6b3 5dbd 18b1 943c 304b e43d
000000d0: 22b1 f53c d573 173d 1dc0 3cbd 8c02 253c
000000e0: 4d15 03be 7bb3 c2bc d9b2 02be 808a a63d
000000f0: 8133 9bbd 1361 c7bd 0db4 eebd 0e1b 203d
00000100: cc8d bc3d 1d07 dcbd 29a6 16be 9880 04be
00000110: ea21 6ebd e7a1 2eba 3c0c 1ebe 01d0 573d
00000120: 6644 523e ef3c 81bb bf4e 153e d2ac dd3d
00000130: 5f03 fbbd 3cd1 be3d 4d53 ff3c 6daf bbbd
00000140: b311 42bc 1d3b f6bd c66d 0e3d 3aff 09bd
00000150: 5f78 57bd 0086 c7bd 5a87 493d cff8 f53d
00000160: 6d92 563d ba1d f8bd bec4 1e3d b3a3 3abe
00000170: 4b58 9b3d 0e32 c2bd 38b1 7abd 9d80 eabd
00000180: 5939 0ebd 8174 72bc 8815 0b3e 02c3 35be
00000190: f321 7d3d eaea 673d 749c 3bbe 4026 6c3d
000001a0: 8b77 c6bd 0d7f 303d 3bb6 df3d 3542 58bd
000001b0: fdfd 073e d15f 8bbc 20f6 37be 284c 053c
000001c0: ffcd 463b 0380 90bd 0144 95bd 5372 1fbc
000001d0: 607b ebbd d1d6 34bd 46dc 11ba 2f3e 35be
000001e0: f5f8 15be d56d ac3d 386b 653d 451e eabd
000001f0: 6b90 0c3e 0f5a 123e 66dc 17bd a32a be3d
00000200: 704d 233e c196 4b3e 24b1 8fbd 980d 903d
00000210: 9bd2 d33d 2892 12bc 98bd 483c c180 46be
00000220: 28b2 39bb 02d3 273e f139 a93d e320 e03c
00000230: 8a38 84bd 8e0b 51bd fae0 4f3e cea0 bdbd
00000240: e068 de3d 6ab8 c63d 9fef ed3d bedd d83d
00000250: 7cd6 abbd fd00 a9bd f58f cdbd 2323 81bc
00000260: 55b7 b43b f7b1 48be ccc5 11be b690 a0bd
00000270: 86e2 26be 00a2 20be 7b1d f7bd d661 413d
00000280: ed5a 05bd 9601 2cbe 1e26 be3c f5d7 53be
00000290: 6353 e6bb 2f06 633d c060 28be b86f 4d3e
000002a0: baf2 8ebd b862 673d 8df2 c93d 73fa 52bd
000002b0: b9b1 c03d 53d8 163e 46d7 b73d 55ae 503e
000002c0: e364 1f3c e13d 33bd c69f 5c3c 2e27 e4b9
000002d0: 6c06 a33d 8632 5dbe 46a3 8ebc de67 85bd
000002e0: f207 463e 94ce 713d d666 2bbd 9bd3 95bd
000002f0: 6f0b 3f3d f7f4 40bd a507 a1bd beb0 cc3d
00000300: 1bcd fc3d 97d4 023e d52b 023e 4a50 143e
00000310: ac2e aa3d ef2e d0bd c5af 33be ec21 253e
00000320: 9251 193e 1f07 9e3d 8a69 0ebe 576f 8ebd
00000330: 3d1e 673c 89a0 013e 0229 dd3d 735b 1d3d
00000340: eb69 653d 0bef 3dbd 14f7 cfbc fbd3 be3d
00000350: 3494 f9bc 0a22 0e3e 4872 723d c7dc 123d
00000360: 6064 0c3d fce3 6c3d 2ea8 1abe 304c cfbd
00000370: fe2d 793d 650f 013e e25a 063e 0459 9cbc
00000380: 8a11 653d b5ac 2bbe ef15 d43b d0f2 98bd
00000390: 2347 473d 7773 a53d 5946 993d 278f e33d
000003a0: 2d21 ccbb 260c bdbd 25bf 48bc 2844 35be
000003b0: 6020 8a3d 457b 2f3e 5bba a23d 07cd 2a3c
000003c0: c398 b8bd 28e8 31bc 5782 0cbe 2b08 143d
000003d0: 4551 d4bd 4309 203e bbea c0bd a64c 14be
000003e0: b35e a7bd e4ee ba3c da8a d93c 9b3c ee3d
000003f0: c669 0b3e 0cea 03be 2e22 883d f2eb bf3c

encoder.lstm2.bias_ih_l0 f4 [128]
0.16637628 -0.04178348 -0.04083599 -0.1362466 -0.16269206 0.05871095 -0.07804672 0.059604604
-0.028803889 -0.13480364 -0.14632295 -0.054980267 0.07499263 0.02170549 0.009994353 -0.124309026
-0.013828627 -0.12382755 0.19257618 -0.18860346 0.102364875 0.06410949 -0.08382805 -0.096589155
-0.12813862 0.078018665 -0.012057891 0.12985179 -0.096032046 0.071751684 -0.020589799 0.10383647
0.00035945285 -0.10991976 0.02691599 -0.12660518 -0.015904197 0.12675834 -0.04660823 0.14831826
0.047302417 0.11922154 -0.0040176823 0.07439753 -0.05003325 0.14844859 -0.124166876 0.1239084
-0.09743858 -0.013212345 -0.15074268 -0.086415194 0.07936018 -0.08337937 0.04558147 0.09480821
0.023841593 0.008731403 -0.1403159 0.0030933688 0.09963867 0.104170315 0.036964085 -0.07095427
0.08879641 -0.13497041 -0.17449154 0.011330538 0.011614779 -0.053295337 0.00044087748 0.011908856
0.13041422 0.045098722 -0.09419187 -0.15404236 0.002814589 0.19953877 -0.1646714 0.18466076
-0.10648343 -0.1684221 0.14970964 0.07249343 0.17664137 -0.01328634 -0.04392764 -0.097938135
0.039471287 0.028308261 -0.038025904 -0.12300377 0.068420686 -0.099369414 -0.032939818 -0.18581814
-0.050222967 0.12374341 0.21522021 0.14469084 -0.12029873 -0.04744862 0.14130028 -0.074375704
0.21486272 0.020066125 -0.13119875 -0.048962303 0.0015595219 0.022710094 0.11761799 -0.052395824
-0.122046374 0.22121689 -0.052422624 0.06531866 0.053964857 0.21963054 -0.10987256 0.037901804
-0.111582235 0.04075235 0.16631374 0.16072068 -0.041821074 0.1979218 -0.06376975 0.0030132094
00000000: 8b5e 2a3e 2825 2bbd a443 27bd 3b84 0bbe
00000010: bf98 26be e57a 703d f5d6 9fbd f523 743d
00000020: 22f6 ebbc f709 0abe afd5 15be fd32 61bd
00000030: bc95 993d b6cf b13c 5bbf 233c bb95 febd
00000040: 7791 62bc 4c99 fdbd b132 453e 4421 41be
00000050: ada4 d13d d64b 833d 0aae abbd 89d0 c5bd
00000060: c536 03be 40c8 9f3d 768e 45bc def7 043e
00000070: 73ac c4bd 8cf2 923d f0ab a8bc 37a8 d43d
00000080: f274 bc39 9c1d e1bd ec7e dc3c caa4 01be
00000090: 8549 82bc f0cc 013e 45e8 3ebd bee0 173e
000000a0: 2ec0 413d 6c2a f43d c3a6 83bb bb5d 983d
000000b0: aaef 4cbd e802 183e 344b febd b0c3 fd3d
000000c0: e18d c7bd 9778 58bc 4a5c 1abe 73fa b0bd
000000d0: 9787 a23d cec2 aabd a3b3 3a3d cf2a c23d
000000e0: 724f c33c 290e 0f3c f9ae 0fbe 1eba 4a3b
000000f0: 5c0f cc3d 3f57 d53d a767 173d 7950 91bd
00000100: e4da b53d af35 0abe e9ad 32be b9a3 393c
00000110: ea4b 3e3c 364c 5abd 9325 e739 5d1d 433c
00000120: 4e8b 053e 70b9 383d abe7 c0bd 48bd 1dbe
00000130: f874 383b e453 4c3e 9f9f 28be b617 3d3e
00000140: fc13 dabd d876 2cbe 7c4d 193e 6f77 943d
00000150: 7ae1 343e f3ae 59bc 78ed 33bd ca93 c8bd
00000160: a5ac 213d bae6 e73c 0dc1 1bbd 67e9 fbbd
00000170: 2520 8c3d 3182 cbbd e7eb 06bd 1c47 3ebe
00000180: 99b6 4dbd 2f6d fd3d b062 5c3e d629 143e
00000190: 2e5f f6bd 7c59 42bd 05b1 103e 4a52 98bd
000001a0: f904 5c3e b761 a43c f758 06be b28c 48bd
000001b0: df68 cc3a 850a ba3c b3e1 f03d 019d 56bd
000001c0: 73f3 f9bd ae86 623e 1bb9 56bd cac5 853d
000001d0: 410a 5d3d d4e6 603e dd04 e1bd ec3e 1b3d
000001e0: 3a85 e4bd f0eb 263d 264e 2a3e f693 243e
000001f0: 934c 2bbd 03ac 4a3e b799 82bd 4479 453b

encoder.lstm2.bias_hh_l0 f4 [128]
-0.11724717 0.12313734 0.08025011 0.039352566 0.14258438 0.19553353 -0.12693034 -0.045380943
0.09970894 -0.079423584 0.06321558 -0.1376499 -0.054568585 -0.06842672 0.09690714 0.0942816
0.124905154 0.14983681 0.08671143 -0.15985559 0.081271894 0.10485317 -0.09262165 0.13856737
0.19681431 -0.04321984 0.121943265 0.18861775 0.11387251 0.17928964 -0.063820876 0.088661075
0.1400209 0.010587161 -0.087603025 0.14915107 0.1340052 0.064320855 0.11045178 -0.032547217
-0.059578776 0.13471894 0.002058125 -0.08146676 0.033889566 -0.08108997 -0.08955096 0.084352046
0.17241384 -0.10354857 0.1066092 -0.07909586 0.018753868 0.053621303 0.008998234 0.17829794
-0.110830836 -0.008678368 -0.05027068 -0.11972758 0.08448488 0.08927846 0.19555679 -0.011235151
0.01392502 -0.104039684 -0.006397679 -0.16573548 -0.14924599 -0.109816425 -0.14631978 0.16031006
0.078668326 -0.19701114 -0.03532356 -0.16982344 0.045653436 0.04683221 -0.15366207 0.1396406
-0.032059923 0.10496617 0.11298815 0.10224728 -0.007059156 -0.053616 -0.14008708 -0.009366113
0.09653904 -0.020957649 0.18919182 -0.019416962 0.052403722 0.112244114 -0.090449646 -0.18624222
0.22617866 0.09086954 0.22529936 -0.033053678 -0.09015499 0.12191583 0.1730098 0.08457847
-0.08435905 0.18133247 0.045527678 0.024656674 -0.046347767 -0.10700709 -0.007171348 0.046098597
0.12522873 -0.0494986 0.09845301 0.10341132 -0.076872416 -0.08155706 0.22163408 0.05381697
0.08663244 -0.09779822 0.19566931 0.019203393 0.029619876 -0.026591538 -0.1423611 -0.033848587
00000000: 491f f0bd 6e2f fc3d 2b5a a43d 2830 213d
00000010: a401 123e f139 483e 07fa 01be 5ee1 39bd
00000020: 3334 cc3d d5a8 a2bd 2c77 813d 18f4 0cbe
00000030: 4f83 5fbd 4f23 8cbd 4077 c63d b616 c13d
00000040: 46ce ff3d d26e 193e c395 b13d 2fb1 23be
00000050: e171 a63d 42bd d63d 6bb0 bdbd 9be4 0d3e
00000060: b189 493e 4907 31bd 64bd f93d 0325 413e
00000070: fe35 e93d b497 373e 85b4 82bd f093 b53d
00000080: a461 0f3e c675 2d3c 3769 b3bd 0fbb 183e
00000090: a938 093e a7ba 833d 8b34 e23d 3b50 05bd
000000a0: e008 74bd c3f3 093e 9ce1 063b 0bd8 a6bd
000000b0: c9cf 0a3d 8012 a6bd 7e66 b7bd c4c0 ac3d
000000c0: 418d 303e 4611 d4bd ed55 da3d 03fd a1bd
000000d0: b6a1 993c 03a2 5b3d 546d 133c bc93 363e
000000e0: 47fb e2bd b72f 0ebc a1e8 4dbd bc33 f5bd
000000f0: 6906 ad3d a0d7 b63d 0a40 483e a413 38bc
00000100: c425 643c c212 d5bd 9fa3 d1bb 90b6 29be
00000110: f1d3 18be 6fe7 e0bd dad4 15be 5228 243e
00000120: dc1c a13d 4abd 49be 70af 10bd 32e6 2dbe
00000130: 19ff 3a3d 22d3 3f3d 9759 1dbe f2fd 0e3e
00000140: 4451 03bd 81f8 d63d 5566 e73d 0667 d13d
00000150: 7e50 e7bb 739c 5bbd fd72 0fbe 5374 19bc
00000160: 43b6 c53d 60af abbc 80bb 413e 5210 9fbc
00000170: 49a5 563d 3ee0 e53d aa3d b9bd 48b6 3ebe
00000180: 619b 673e cf19 ba3d e0b4 663e 4b63 07bd
00000190: 2ea3 b8bd 02af f93d 7b29 313e 7a37 ad3d
000001a0: 70c4 acbd 38af 393e 3b7b 3a3d cbfc c93c
000001b0: 28d7 3dbd 8826 dbbd a1fd eabb e2d1 3c3d
000001c0: f63b 003e 0bbf 4abd bba1 c93d 50c9 d33d
000001d0: 496f 9dbd 6307 a7bd 0bf4 623e 2f6f 5c3d
000001e0: 596c b13d 6f4a c8bd 895d 483e 6f50 9d3c
000001f0: 62a5 f23c 7fd6 d9bc 1cc7 11be d1a4 0abd

decoder.lstm1.weight_ih_l0 f4 [128, 32]
-0.06385636 -0.025266996 0.0041177124 0.027093124 -0.15233381 -0.01578024 -0.015521983 0.079577394
0.09053026 0.07969669 -0.05856127 -0.01644874 -0.22658487 0.017204674 -0.10735279 0.09067999
-0.12746103 -0.1771411 0.10419137 0.098276585 -0.054887332 -0.07166804 0.15243426 0.14819625
0.014143555 0.07246445 -0.14367561 -0.13194384 -0.1601908 0.17841889 0.10062402 0.07551901
-0.026392328 -0.18276547 -0.07726183 -0.21487477 0.0445891 0.008598482 -0.08232256 -0.020765252
-0.01079638 0.023973834 -0.101561144 0.0027462577 -0.21774243 0.050426923 -0.082293764 -0.10351291
-0.07430496 -0.10174261 -0.02671086 -0.085321456 -0.21394719 -0.24819134 -0.033809815 -0.028436208
0.17848079 0.13687785 -0.105966814 0.050672665 -0.06214967 -0.10603463 -0.12003085 -0.11150372
0.06379236 -0.11719116 -0.27019653 0.036082387 -0.008380931 -0.0005668629 -0.19955431 0.048692595
-0.02920331 -0.17694551 -0.17296936 -0.27778935 -0.16970074 -0.0096869115 -0.10568879 0.14148413
-0.24712193 0.057675347 0.07523683 -0.048317656 -0.20969006 0.005717017 0.06239878 -0.13137016
0.18303795 0.24703898 0.075241305 -0.22248241 0.0064486745 0.17286783 0.05749118 0.024501126
0.06547006 -0.1288477 0.17506629 0.0804139 0.10826481 0.078938775 -0.14663664 -0.16616528
-0.11652178 -0.057484183 0.048961073 0.0974521 -0.17719093 -0.16234508 -0.012984095 0.037658677
-0.0816046 0.10494596 -0.107663244 -0.04922005 -0.14531296 -0.022088664 -0.030473838 -0.050399847
-0.011084711 -0.13163806 -0.0503065 0.016707093 0.12150034 -0.09069009 0.0137557695 0.16923372
-0.15688282 -0.06486512 -0.07519706 -0.16638437 0.1546892 -0.1520036 0.004714912 -0.12701541
0.08704033 0.08844693 0.1526371 0.1733405 -0.16625361 0.05121877 0.073597714 0.089162596
-0.07827697 -0.15387516 -0.08885503 -0.042071816 0.12946452 0.06950542 0.03525421 -0.034428574
0.09364557 0.006714364 0.09465428 0.035830714 0.08192102 -0.099054396 -0.08519604 -0.16840991
-0.112878986 -0.10456401 -0.0006757205 0.011824239 0.09550425 0.10253591 -0.024469877 0.02887959
-0.10105415 0.070745096 -0.06923322 -0.13493715 -0.15379313 -0.1413409 -0.08955292 -0.14687467
0.013684511 -0.21065636 0.007436251 -0.006747931 0.0043709036 -0.17319609 -0.056857992 -0.15985262
-0.008977293 -0.00096186565 0.14786758 -0.13301113 0.12288 0.20424935 -0.046132185 -0.14690949
0.11794334 0.021719253 0.10387431 0.17685506 -0.02775122 0.0734622 -0.031183502 -0.118384324
-0.016381526 0.07208678 0.011245685 0.016069397 0.017809961 -0.072688505 0.10512313 -0.0606107
0.10589847 -0.109834425 -0.032469876 -0.11826146 0.08818266 0.035118748 -0.03893804 -0.035760716
-0.11469393 -0.16416794 -0.18327522 0.0015028657 0.08166823 -0.10782151 -0.1162067 0.01892696
-0.07461903 -0.06382441 -0.041283373 -0.18101086 0.1351746 -0.05713707 -0.0679047 -0.08504351
0.026790127 0.033181693 -0.04080239 -0.13216944 -0.0073128105 0.17044596 -0.08598562 -0.023771195
0.052006852 -0.14990069 0.056837548 -0.14201969 -0.135161 0.015524055 -0.13345304 -0.12587535
-0.087829515 -0.05442403 -0.10586669 -0.12698446 -0.0089395195 -0.033808045 -0.024463212 -0.030899279
00000000: 20c7 82bd bbfc cebc e0ed 863b 66f2 dd3c
00000010: 65fd 1bbe 9045 81bc ea4f 7ebc 79f9 a23d
00000020: ee67 b93d 0538 a33d f1dd 6fbd 82bf 86bc
00000030: dd05 68be d1f0 8c3c c8db dbbd 6eb6 b93d
00000040: 2585 02be 7a64 35be 4962 d53d 3c45 c93d
00000050: 8ad1 60bd b1c6 92bd ba17 1c3e c2c0 173e
00000060: 5fba 673c 3e68 943d b31f 13be 491c 07be
00000070: 0f09 24be 71b3 363e f713 ce3d b6a9 9a3d
00000080: b934 d8bc df26 3bbe 733b 9ebd 2208 5cbe
00000090: 0fa3 363d a6e0 0c3c bb98 a8bd e41b aabc
000000a0: 4de3 30bc c664 c43c 4aff cfbd 8ffa 333b
000000b0: dff7 5ebe 768c 4e3d a289 a8bd 94fe d3bd
000000c0: 332d 98bd 6e5e d0bd bcd0 dabc 04bd aebd
000000d0: f914 5bbe df25 7ebe 297c 0abd 0df3 e8bc
000000e0: abc3 363e b529 0c3e 2105 d9bd 248e 4f3d
000000f0: a790 7ebd af28 d9bd bcd2 f5bd 105c e4bd
00000100: 92a5 823d eb01 f0bd 3357 8abe 20cb 133d
00000110: 2c50 09bc 8699 14ba f757 4cbe e371 473d
00000120: c83b efbc 3431 35be e11e 31be 683a 8ebe
00000130: 08c6 2dbe dab5 1ebc 5d73 d8bd 37e1 103e
00000140: 880d 7dbe fc3c 6c3d c415 9a3d bce8 45bd
00000150: feb8 56be d155 bb3b dd95 7f3d e685 06be
00000160: 4d6e 3b3e c9f7 7c3e 1d18 9a3d 6ed2 63be
00000170: 674f d33b 4404 313e df7b 6b3d 96b6 c83c
00000180: 2b15 863d a7f0 03be 9444 333e 0bb0 a43d
00000190: f1b9 dd3d a7aa a13d ea27 16be 3b27 2abe
000001a0: f9a2 eebd 8974 6bbd 688b 483d f794 c73d
000001b0: 8a71 35be ca3d 26be 3ebb 54bc fc3f 1a3d
000001c0: 5020 a7bd e8ed d63d 8c7e dcbd f79a 49bd
000001d0: eccc 14be 49f3 b4bc 45a4 f9bc 1270 4ebd
000001e0: a69c 35bc 21cc 06be 300e 4ebd 50dd 883c
000001f0: 2cd5 f83d babb b9bd e15f 613c 9b4b 2d3e
00000200: e4a5 20be 01d8 84bd eb00 9abd aa60 2abe
00000210: d866 1e3e d5a6 1bbe 8c7f 9a3b 5410 02be
00000220: 3342 b23d aa23 b53d e64c 1c3e 2c80 313e
00000230: 633e 2abe c6ca 513d 66ba 963d e19a b63d
00000240: ad4f a0bd 7391 1dbe a0f9 b5bd 7f53 2cbd
00000250: 5992 043e dc58 8e3d b866 103d fa04 0dbd
00000260: 40c9 bf3d 2b04 dc3b 1ada c13d 3ac3 123d
00000270: 35c6 a73d 08dd cabd 437b aebd a673 2cbe
00000280: 192d e7bd a825 d6bd d622 31ba 74ba 413c
00000290: bb97 c33d 59fe d13d 0d75 c8bc e494 ec3c
000002a0: 7af5 cebd cee2 903d 25ca 8dbd f72c 0abe
000002b0: f27b 1dbe abbb 10be 8567 b7bd 5066 16be
000002c0: 0035 603c 4db6 57be cbab f33b bf1d ddbb
000002d0: cc39 8f3b 515a 31be ede3 68bd 68b0 23be
000002e0: 7f15 13bc b625 7cba 996a 173e 1234 08be
000002f0: 82a8 fb3d be26 513e 1af5 3cbd 716f 16be
00000300: 478c f13d 93ec b13c 0ebc d43d 7e19 353e
00000310: 8756 e3bc 5a73 963d 8b74 ffbc 7b73 f2bd
00000320: 8d32 86bc 3ca2 933d d23f 383c f8a3 833c
00000330: 32e6 913c b6dd 94bd cc4a d73d ed42 78bd
00000340: 4ce1 d83d dff0 e0bd 22ff 04bd 1033 f2bd
00000350: 1c99 b43d add8 0f3d 7f7d 1fbd d479 12bd
00000360: a7e4 eabd a41b 28be 80ac 3bbe cefb c43a
00000370: ac41 a73d 86d1 dcbd c7fd edbd b60c 9b3c
00000380: ddd1 98bd 5fb6 82bd c118 29bd e95a 39be
00000390: 366b 0a3e 8f08 6abd 9f11 8bbd 4b2b aebd
000003a0: f876 db3c 87e9 073d 6820 27bd 6d57 07be
000003b0: 4da0 efbb 6389 2e3e 3b19 b0bd cfbb c2bc
000003c0: 2305 553d 917f 19be 7dce 683d 9c6d 11be
000003d0: a567 0abe 9b58 7e3c eaa7 08be 78e5 00be
000003e0: f6df b3bd bbeb 5ebd a3d0 d8bd 3708 02be
000003f0: 1077 12bc 4e7a 0abd 1367 c8bc 7c20 fdbc
